google-chrome/Default/optimization_guide_prediction_model_downloads/41c11241-7b38-4631-b81e-c519b246e9b8/model.tflite (tflite, 409956 bytes, 166 tensors)

context_transformer_0/bottleneck_input/norm/add f4 [32]
0	0xbd228519	-0.039677713
1	0xbd20280c	-0.03910069
2	0xbdfaac58	-0.12239903
3	0xbd5179c0	-0.0511415
4	0xbd82845f	-0.06372904
5	0xbcc7a616	-0.024371188
6	0x3d9abfe7	0.07556134
7	0x3de1b942	0.11021663
8	0xbd6562d6	-0.05600246
9	0xb9140fd0	-0.0001412027
10	0x3d5bd9e6	0.0536746
11	0x3d1b1db0	0.03787011
12	0xbdf55d8a	-0.11980732
13	0xbb5300c6	-0.0032196506
14	0xbc856836	-0.016285043
15	0x3de23c3f	0.11046647
16	0x3da3ea11	0.08003629
17	0xbd2ea946	-0.0426419
18	0x3d295008	0.04133609
19	0xbce56361	-0.02800149
20	0xbc2e30df	-0.010631769
21	0xbd1000b4	-0.03515692
22	0xbd6d4f30	-0.057936847
23	0x3bc91ed1	0.006137707
24	0x3d5ef20f	0.054430064
25	0xbddf0579	-0.10889716
26	0xbdbc8256	-0.09204547
27	0x3d917776	0.071028635
28	0xbe006af0	-0.12540793
29	0x3ced6bbd	0.028982038
30	0x3e55333f	0.2082033
31	0x3c6fccb3	0.014636206

context_transformer_1/bottleneck_input/norm/add f4 [32]
0	0x3d21758f	0.039418753
1	0x3e11ceb0	0.14239001
2	0xbc756dc6	-0.014979785
3	0x3e15cf6b	0.14629905
4	0x3e11ba38	0.14231193
5	0xbd816b16	-0.06319253
6	0x3cb9db9a	0.022687722
7	0xbde8083f	-0.11329698
8	0xbc9d1731	-0.019176098
9	0xbd363c1e	-0.044490926
10	0x3de74ac3	0.112935565
11	0x3d7a999a	0.061181642
12	0xbc84cca8	-0.016210869
13	0x3ce8a6fb	0.028399935
14	0x3d3fc9c2	0.04682327
15	0xbd7269de	-0.059182994
16	0xbd9ffa49	-0.0781141
17	0x3d730ea3	0.05934013
18	0xbde7a9a8	-0.11311656
19	0xbdd2ba88	-0.10289484
20	0x3d3624d1	0.044468705
21	0x39171ebc	0.00014411932
22	0x3e293347	0.16523467
23	0xbd5a8e91	-0.05335862
24	0xbcfd5f98	-0.030929372
25	0x3d9c3db6	0.07628958
26	0xbdb07621	-0.08616281
27	0x3d1eb4a6	0.0387465
28	0xbe28a90c	-0.16470736
29	0x3d943770	0.07237136
30	0xbc2ec3f8	-0.01066684
31	0xbd98a0d2	-0.07452549

mention_transformer_0/bottleneck_input/norm/add f4 [32]
0	0xbd68fe14	-0.056882933
1	0xbe5302ce	-0.20606539
2	0xbd73f075	-0.05955549
3	0x3d389358	0.045062393
4	0x3d330a75	0.043711144
5	0x3d59c4f8	0.05316636
6	0x3e402ab8	0.18766296
7	0x3de3268a	0.11091335
8	0xbdc38f86	-0.09548859
9	0xbda131d0	-0.07870829
10	0xbdf28991	-0.11842645
11	0xbe41813e	-0.18896958
12	0xbe84af2e	-0.25914901
13	0xbc203bde	-0.009779898
14	0xbdabdcec	-0.08391747
15	0xbd303086	-0.043015026
16	0x3dc06834	0.09394875
17	0xbe83b65a	-0.2572506
18	0x3d577c26	0.05260863
19	0xbe4f14fd	-0.2022285
20	0xbe3602ba	-0.17774478
21	0x3db7ef20	0.08981156
22	0xbd873e3f	-0.066036694
23	0xbd80dbc9	-0.06291921
24	0xbe7d7838	-0.24752891
25	0xbdfeb116	-0.1243612
26	0x3cc14365	0.023591707
27	0x3d9b1eb1	0.07574213
28	0x3c80b38a	0.01571061
29	0x3df3099b	0.118670665
30	0x3d37417c	0.044740185
31	0x3df93e2a	0.1217006

mention_transformer_1/bottleneck_input/norm/add f4 [32]
0	0x3dc04aa3	0.09389236
1	0x3cb0179f	0.021495638
2	0x3e022023	0.12707572
3	0x3e3b2f9f	0.18279885
4	0x3d7ee1a9	0.062226925
5	0x3ec07de2	0.3759604
6	0x3d5811a4	0.0527512
7	0xbc98fa34	-0.018673994
8	0xbe311599	-0.17293395
9	0x3cef4688	0.029208437
10	0xbec1577c	-0.37762058
11	0x3dbf8341	0.093512066
12	0xbee64cfd	-0.44980612
13	0x3d223031	0.03959674
14	0xbc62ec68	-0.013850309
15	0xbcc39678	-0.02387546
16	0x3df71e65	0.12066344
17	0x3e155af0	0.14585471
18	0xbe2a1248	-0.16608536
19	0xbe12faf3	-0.14353542
20	0xbe7691b1	-0.24079014
21	0x3dd7ff9e	0.10546802
22	0xbe6c5bf3	-0.23081951
23	0x3e7fbc08	0.24974072
24	0xbda20dea	-0.0791281
25	0x3e959e36	0.29222268
26	0x3d800e6d	0.062527515
27	0x3e3cb83c	0.18429655
28	0x3de91ac8	0.11382061
29	0x3e9d87e5	0.30767742
30	0x3dfa6007	0.12225347
31	0x3ea51eec	0.32250154

context_transformer_0/attention/value/add;context_transformer_0/attention/value/einsum/Einsum;context_transformer_0/attention/value/add/ReadVariableOp/resource f4 [32]
0	0xba91eaf6	-0.0011132646
1	0x3dbad026	0.091217324
2	0x3bf64d5c	0.007516546
3	0x3cad4049	0.021148818
4	0xbc86914c	-0.016426705
5	0xbe1f8962	-0.15579751
6	0x3d9b7140	0.0758996
7	0x3dfd98c8	0.12382656
8	0xbd3765cb	-0.04477481
9	0xbc13ca03	-0.009020331
10	0x3ca9b81f	0.020717679
11	0x3d7d28dc	0.061806545
12	0xbd805d5f	-0.06267809
13	0xbc8660fd	-0.01640367
14	0x3d820f1f	0.0635054
15	0x3cfab6ae	0.030604687
16	0x3ce4990f	0.027905015
17	0xbc6f625b	-0.014610852
18	0x3dd10bb5	0.10207311
19	0xbd8602f6	-0.065435335
20	0x3ca415a8	0.020029858
21	0x3d49ac83	0.049236786
22	0x3d8160f9	0.06317324
23	0xbdcaf5ea	-0.09910186
24	0x3b4600c2	0.0030212854
25	0xbdb26522	-0.08710696
26	0xbcc70fc5	-0.024299512
27	0x3e3aca7a	0.18241301
28	0xbd0f7233	-0.03502102
29	0xbd36800a	-0.0445557
30	0x3c7f8fe6	0.015598273
31	0xbd76c724	-0.06024851

context_transformer_0/bottleneck_input/norm/mul f4 [32, 32]
0	0xbea91375	-0.33022657
1	0x3ee04855	0.43805185
2	0x3c3a1225	0.011356865
3	0x3f38e5a0	0.7222538
4	0xbc662352	-0.014046507
5	0x3e053aef	0.13010763
6	0xbcff97af	-0.031200258
7	0x3df18392	0.11792673
8	0xbe3e011f	-0.18555115
9	0x3c332651	0.010934428
10	0x3e246841	0.16055395
11	0x3ed5ea78	0.41780448
12	0x3e7d9105	0.24762352
13	0xbe3313e4	-0.17488056
14	0xbed58406	-0.41702288
15	0xbd291838	-0.041282862
16	0xbeeef5e0	-0.46671963
17	0x3e65d798	0.22445524
18	0x3e8124cc	0.25223386
19	0xbf13c34c	-0.57719874
20	0x3ed0e071	0.40796235
21	0x3ec4cac5	0.3843595
22	0xbdaaf7c3	-0.08348038
23	0x3ef860f6	0.48511475
24	0x3f38b93c	0.72157645
25	0x3f273a32	0.65323174
26	0xbcd89c55	-0.026441732
27	0x3d22ce65	0.039747614
28	0xbf84831d	-1.0352513
29	0xbebf02b2	-0.37306744
30	0x3da732da	0.08163996
31	0x3e931340	0.28725624
32	0xbda2a28d	-0.0794116
33	0x3ed50a38	0.4160936
34	0xbe6317da	-0.22177067
35	0x3d5996d9	0.053122375
36	0xbedbe57a	-0.42948514
37	0xbe38ba8a	-0.18039909
38	0xbe230dd8	-0.1592325
39	0xbe6590f2	-0.22418573
40	0x3e502ade	0.20328853
41	0x3cece249	0.028916495
42	0xbbdb75f5	-0.006697411
43	0xbd1f292a	-0.038857616
44	0x3e9b9120	0.3038416
45	0x3ec129f5	0.37727323
46	0xbd796171	-0.060883943
47	0xbdbfd487	-0.09366708
48	0xbc55e226	-0.013054406
49	0xbf157f8b	-0.5839774
50	0x3e9b9272	0.30385166
51	0xbea10baa	-0.3145421
52	0xbe819d66	-0.25315398
53	0x3ed43c30	0.4145217
54	0xbf14508e	-0.57935417
55	0x3e097ebd	0.13427253
56	0xbeeac41b	-0.45852742
57	0xbf0d604e	-0.55225074
58	0xbf1a4a77	-0.60269874
59	0xbe6d6f9a	-0.23187104
60	0xbeb3d9a1	-0.35126975
61	0xbe8f6628	-0.28007627
62	0xbe475d6e	-0.19469234
63	0xbe3ae784	-0.18252379
64	0xbe244df5	-0.16045363
65	0x3e743058	0.23846567
66	0xbee5d352	-0.44887787
67	0xbe0a59ef	-0.1351087
68	0xbd9ab9c3	-0.075549625
69	0x3e851cfb	0.25998673
70	0xbe3b276e	-0.1827676
71	0xbe014f8c	-0.12628001
72	0x3c069950	0.0082152635
73	0xbe5e9ca3	-0.2173944
74	0xbda54c68	-0.08071214
75	0xbec844aa	-0.39114887
76	0x3d4d7793	0.050162863
77	0xbd2f8493	-0.042851042
78	0xbd7806fa	-0.06055353
79	0x3f1e1d55	0.6176351
80	0xbe37f2ee	-0.17963764
81	0xbe9f5f44	-0.3112737
82	0x3d84fcf7	0.06493562
83	0x3e70d566	0.23518905
84	0xbeabaa98	-0.3352859
85	0x3da9c063	0.08288648
86	0x3f29134d	0.66045076
87	0x3f093f6b	0.53612393
88	0x3e6c5a1a	0.23081246
89	0x3e2e208e	0.17004606
90	0xbc791a16	-0.015203973
91	0x3e6377c2	0.22213653
92	0xbe818ccf	-0.2530274
93	0xbe8535ab	-0.26017508
94	0x3e6959c5	0.2278815
95	0xbea52df9	-0.32261637
96	0xbcca3fe1	-0.024688663
97	0xbe424afd	-0.18973918
98	0xbe1a4dcd	-0.15068741
99	0xbe647749	-0.22311129
100	0x3e42cb3d	0.19022842
101	0x3e1b2e82	0.1515446
102	0x3e36319b	0.1779236
103	0xbd73a6b3	-0.05948515
104	0x3e6b9d8b	0.23009317
105	0x3c3a80a8	0.011383213
106	0x3c9f951f	0.019480286
107	0xbeedebe9	-0.46469048
108	0x3c9d6d6b	0.019217214
109	0x3d02c3e6	0.031925105
110	0x3e0b9447	0.13630782
111	0x3e1263d3	0.14295892
112	0xbd6e0321	-0.058108453
113	0xbbf17639	-0.0073688296
114	0xbd8810da	-0.06643839
115	0xbee61e7f	-0.44945142
116	0x3e673c00	0.22581482
117	0x3dca7af4	0.09886733
118	0xbd359f34	-0.04434128
119	0x3e820974	0.25397837
120	0x3ebde7c4	0.37090886
121	0x3dcbfe49	0.099606104
122	0x3dcd35a4	0.10019997
123	0x3db947dc	0.09046909
124	0xbedf6ba3	-0.43636808
125	0xbc98c653	-0.018649256
126	0xbdfc5597	-0.123210125
127	0xbe820483	-0.25394067
128	0xbc91c693	-0.017794883
129	0x3f0686bf	0.52549356
130	0xbe9ea54e	-0.30985492
131	0xbed76dbf	-0.42075917
132	0xbe34d8ee	-0.17660877
133	0x3f353112	0.70778
134	0xbdcc7ffe	-0.0998535
135	0x3cd1e4a5	0.025621722
136	0xbe3ffacf	-0.1874802
137	0x3d49bef6	0.04925438
138	0x3e917084	0.28406155
139	0xbe2a96f6	-0.1665915
140	0xbe772604	-0.24135596
141	0xbdf790b0	-0.12088144
142	0xbe8e1bfb	-0.27755722
143	0xbe0e42c9	-0.13892664
144	0x3e06f96a	0.13181081
145	0x3ee64f31	0.44982293
146	0xbd97034b	-0.07373675
147	0xbe6d1cdc	-0.2315554
148	0xba3ab84d	-0.00071228
149	0x3ee74a2f	0.45173785
150	0x3c18ee91	0.009334222
151	0xbe19e96d	-0.15030451
152	0xbe171fb5	-0.14758189
153	0x3eb4acc6	0.35288066
154	0xbe1c16e9	-0.15243115
155	0xbe4408fa	-0.1914405
156	0xbee8b02a	-0.45446903
157	0xbefa16cf	-0.48845527
158	0xbe0f62df	-0.1400256
159	0x3ecd5b59	0.40108755
160	0xbe2533f2	-0.16133097
161	0x3e0ae526	0.13563976
162	0xbe929370	-0.2862811
163	0x3e073769	0.13204731
164	0xbe3dacc2	-0.18522933
165	0x3cc73b37	0.024320228
166	0x3e87fa0c	0.26557958
167	0x3dfc7099	0.12326164
168	0xbf130027	-0.5742211
169	0xbe9be3a9	-0.30447128
170	0x3b41c736	0.0029568202
171	0xbed389d9	-0.41316107
172	0x3d94f5aa	0.07273419
173	0xbdc1c0c7	-0.094605975
174	0xbc6b9bcb	-0.014380406
175	0xbe85dc00	-0.2614441
176	0x3dd2afb3	0.10287418
177	0xbd727ad3	-0.059199166
178	0x3e774050	0.24145627
179	0x3d3b5388	0.04573396
180	0x3e48d11e	0.19611022
181	0x3e56ed85	0.20989044
182	0x3ec427ef	0.38311717
183	0x3daabc41	0.08336688
184	0x3ddb6446	0.10712485
185	0xbdb1d490	-0.08683121
186	0x3e36c757	0.1784948
187	0x3e16363a	0.14669123
188	0x3d919867	0.071091466
189	0xbe507759	-0.20358028
190	0x3dfca55d	0.12336228
191	0x3e14da04	0.14536291
192	0x3e645858	0.22299325
193	0x3da9c441	0.082893856
194	0xbe21c4d6	-0.15797743
195	0x3d5fdc8e	0.054653697
196	0x3e274c65	0.16337736
197	0xbe60daf7	-0.21958528
198	0x3d086a1b	0.033304315
199	0xbe03db4b	-0.12876622
200	0xbdb2ad95	-0.087245144
201	0xbc910882	-0.017704252
202	0xbe397986	-0.18112764
203	0xbe1d6e8b	-0.153742
204	0xbe332d8a	-0.1749784
205	0x3edf76b2	0.43645245
206	0xbe77b598	-0.24190366
207	0x3d792956	0.060830437
208	0x3b92bf29	0.0044783545
209	0xbd8df678	-0.06931776
210	0x3cca1104	0.024666317
211	0xbc214078	-0.009842031
212	0xbe546827	-0.20742856
213	0xbdab12be	-0.08353184
214	0xbe13fe7a	-0.14452544
215	0x3e0081ea	0.12549558
216	0xbe76a6a3	-0.24087004
217	0x3e165c3e	0.14683625
218	0x3e1f270d	0.1554224
219	0x3e93172e	0.28728622
220	0xbda60924	-0.08107212
221	0x3c6fb18c	0.014629733
222	0xbdaf0f82	-0.0854788
223	0xbdecacf6	-0.11556427
224	0x3dfaa385	0.1223822
225	0x3d3390f4	0.04383941
226	0xbd4b2444	-0.049595132
227	0x3e3e8ad9	0.18607654
228	0x3d9194f1	0.071084864
229	0xbe097d1f	-0.13426636
230	0xbdb95c8d	-0.09050856
231	0xbdd33cb2	-0.10314311
232	0x3e0d0ed4	0.13775188
233	0x3e0d4ede	0.13799617
234	0xbc2d42a9	-0.010574975
235	0x3de29e9e	0.1106541
236	0xbe1d2314	-0.15345412
237	0x3e24d8e4	0.16098362
238	0xbca3fc74	-0.02001784
239	0x3d474f8c	0.048659846
240	0x3d689bef	0.056789335
241	0xbde3eb72	-0.11128892
242	0x3d991935	0.07475511
243	0x3d56e774	0.052466825
244	0xbe06a42a	-0.13148561
245	0xbaffa9ca	-0.0019505557
246	0xbda3efa1	-0.0800469
247	0x3d49ae83	0.049238693
248	0xbe383446	-0.1798869
249	0x3e0960e8	0.13415873
250	0xbde82f46	-0.11337142
251	0x3e104a2e	0.14090797
252	0xbe67fe4b	-0.22655599
253	0xbd2143e3	-0.039371382
254	0x3d4ddd20	0.05025971
255	0x3d5112c7	0.051043298

context_transformer_0/kq_shared_bottleneck/norm/mul;context_transformer_0/kq_shared_bottleneck/norm/add;context_transformer_0/attention/key/einsum/Einsum;context_transformer_0/attention/key/add;context_transformer_0/attention/value/einsum/Einsum;context_transformer_0/attention/key/add/ReadVariableOp/resource f4 [32]
0	0xba1caa17	-0.0005976273
1	0xbeb14206	-0.34620684
2	0x3dc32b6d	0.09529767
3	0x3dce3686	0.10068993
4	0x3e5e6ffd	0.21722408
5	0xbe94b15a	-0.29041559
6	0xbd52918e	-0.051408343
7	0xbe1aa26e	-0.15101025
8	0xbe0fc76f	-0.14040922
9	0xbe8de58e	-0.277142
10	0x3e3f6d97	0.18694149
11	0xbe3cab7a	-0.18424788
12	0xbc929b4a	-0.017896313
13	0x3e68586e	0.22689983
14	0x3d547a85	0.051874656
15	0x3de1d847	0.1102758
16	0x3d881f90	0.06646645
17	0xbdd54207	-0.10412984
18	0xbdbb2224	-0.09137371
19	0x3d5eb9eb	0.054376524
20	0xbd03b322	-0.032153256
21	0x3d0022c6	0.031283163
22	0xbea6b45d	-0.3255948
23	0xbdb4dd98	-0.08831328
24	0xbe3e79a9	-0.18601097
25	0xbeed18bd	-0.46307936
26	0xbe1b0e94	-0.1514228
27	0x3d524970	0.051339567
28	0xbd57ffef	-0.05273431
29	0x3e8bdbac	0.27316034
30	0xbd1c40ae	-0.03814762
31	0x3d91ba10	0.07115567

context_transformer_0/kq_shared_bottleneck/norm/mul;context_transformer_0/kq_shared_bottleneck/norm/add;context_transformer_0/attention/key/einsum/Einsum;context_transformer_0/attention/key/add;context_transformer_0/attention/value/einsum/Einsum;context_transformer_0/attention/key/add/ReadVariableOp/resource1 f4 [32, 32]
0	0xbe642544	-0.2227984
1	0x3e6ab572	0.22920778
2	0x3eae6e5f	0.3406858
3	0x3e895f9f	0.26830766
4	0xbe605835	-0.21908648
5	0x3d52f802	0.05150605
6	0x3d8ef6c7	0.06980663
7	0x3e5ff8a1	0.21872188
8	0xbcaa4e68	-0.02078934
9	0xbe803bd3	-0.25045642
10	0x3d849e9b	0.06475564
11	0xbd8f009d	-0.06982539
12	0xbe8ab835	-0.27093664
13	0xbe84ab16	-0.25911778
14	0xbeb65b3a	-0.35616475
15	0xbd34fb4b	-0.044184964
16	0x3e6b1195	0.22955926
17	0xbee15156	-0.44007367
18	0x3ceb2a2b	0.02870663
19	0x3d0a433d	0.03375553
20	0xbd494510	-0.04913813
21	0x3e3aacd9	0.18229999
22	0xbe15ec18	-0.14640844
23	0x3f2b9507	0.6702427
24	0xbcfcf486	-0.030878317
25	0xbe0b5960	-0.13608313
26	0xbe836ad7	-0.2566745
27	0x3e876e99	0.26451567
28	0xbc7ca33e	-0.015419779
29	0xbdbb6426	-0.09149961
30	0x3cd699fd	0.026196474
31	0x3de1f2a1	0.11032606
32	0x3dac678e	0.08418189
33	0xbeb7638a	-0.3581813
34	0x3d587ec5	0.05285527
35	0x3ece595f	0.4030256
36	0xbe20b338	-0.15693367
37	0xbd69589c	-0.05696927
38	0x3d9548bb	0.07289263
39	0x3b516b3f	0.0031954793
40	0x3e932301	0.28737643
41	0xbdaf64a6	-0.08564119
42	0x3dcb99d7	0.09941452
43	0x3e2e4c6e	0.17021343
44	0xbe40eafc	-0.1883964
45	0x3df42342	0.119207874
46	0xbdaf538d	-0.08560858
47	0xbe4cbc98	-0.19993818
48	0x3ee03712	0.43792015
49	0xbdc16cc0	-0.094445705
50	0xbeaf34e3	-0.34220037
51	0xbdf0aede	-0.11752103
52	0xbe19eaa2	-0.15030912
53	0x3daaebf6	0.08345787
54	0x3e069f24	0.13146645
55	0x3f4c78a8	0.79871607
56	0xbd6ddfec	-0.058074877
57	0x3ea9d969	0.33173683
58	0xbd95797e	-0.072985634
59	0x3e24da72	0.16098955
60	0x3f207cf0	0.6269064
61	0xbe920697	-0.28520653
62	0x3d35f195	0.044419844
63	0xbe69027d	-0.22754855
64	0x3f12b548	0.57307863
65	0x3f13f376	0.57793367
66	0x3df6f772	0.12058915
67	0x3f027ab7	0.509685
68	0xbf117765	-0.56822807
69	0xbd80ea12	-0.06294645
70	0x3f586696	0.84531534
71	0x3e835dbe	0.25657457
72	0xbe938990	-0.2881589
73	0x3e108dc8	0.14116585
74	0xbf21cdc1	-0.6320458
75	0xbd6a76a9	-0.05724207
76	0xbee2f1c1	-0.4432507
77	0xbe4118f1	-0.1885717
78	0x3e3ed834	0.18637162
79	0x3f118f26	0.5685905
80	0xbe077267	-0.13227235
81	0xbeb12827	-0.34600946
82	0x3e11287b	0.14175598
83	0x3e9c680f	0.3054814
84	0xbe09a39c	-0.13441318
85	0xbd16b159	-0.036790226
86	0x3e642f8b	0.22283761
87	0x3f320c24	0.69549775
88	0x3e95f80d	0.2929081
89	0x3d91ac5f	0.07112955
90	0x3c56433d	0.013077554
91	0xbe816c30	-0.25277853
92	0xbe455cbe	-0.1927366
93	0xbd8e3d65	-0.06945304
94	0xbeb8498d	-0.35993615
95	0x3e8e207f	0.27759168
96	0xbde45ee4	-0.111509115
97	0x3d9fbbe9	0.07799513
98	0xbea40414	-0.3203436
99	0xbea18d87	-0.3155329
100	0x3d4fe36e	0.050754003
101	0xbe4a337b	-0.197462
102	0xbdc78be4	-0.09743479
103	0xbeb4f612	-0.35343987
104	0x3e54a6f4	0.20766813
105	0x3d91cfe4	0.0711973
106	0xbcda9536	-0.026682477
107	0x3cb9d88c	0.022686265
108	0x3e858f5b	0.26085934
109	0x3e4ca988	0.19986546
110	0x3d84413b	0.06457754
111	0x3e297509	0.16548552
112	0xbda83763	-0.08213689
113	0x3eb2282d	0.34796277
114	0xbe5787f8	-0.21047962
115	0xbdebb4d6	-0.11509101
116	0x3ebd846d	0.37015095
117	0xbe9e22fb	-0.30886063
118	0xbe82a354	-0.25515234
119	0xbf11b4ba	-0.5691639
120	0xbe8029e2	-0.25031954
121	0xbdce5bcd	-0.10076103
122	0x3eafb0fc	0.34314716
123	0xbe95ccc4	-0.29257786
124	0xbca16ba4	-0.019704647
125	0x3e774872	0.2414873
126	0xbdc191fc	-0.094516724
127	0x3d8d86b1	0.06910456
128	0xbee62c3e	-0.4495563
129	0x3e86bd97	0.2631652
130	0x3ec2ea3b	0.3806933
131	0x3eadd180	0.33948898
132	0xbe898935	-0.26862493
133	0xbcf5a132	-0.02998409
134	0x3ca63a35	0.020291427
135	0x3e7c44b2	0.2463558
136	0xbda0dfb1	-0.07855166
137	0xbed2af29	-0.41149262
138	0x3dd41462	0.1035545
139	0xbdb121cf	-0.086490266
140	0xbe34c397	-0.17652737
141	0xbeb2fa4a	-0.3495658
142	0xbedb7e09	-0.42869595
143	0x3cf2e290	0.029649049
144	0x3de281a6	0.11059885
145	0xbeac76f8	-0.33684516
146	0x3e0d99ad	0.13828154
147	0xbc88f3c4	-0.016717799
148	0x3ef59b25	0.47969928
149	0x3d61bf71	0.055114213
150	0xbf1cce21	-0.6125203
151	0x3f301819	0.6878677
152	0xbe1e01e1	-0.15430404
153	0xbec0f6a7	-0.3768818
154	0xbe38450d	-0.17995091
155	0x3e6858cd	0.22690125
156	0xbe36b124	-0.17841011
157	0xbd941bfa	-0.072318986
158	0x3c86d730	0.016460031
159	0x3eaba510	0.3352437
160	0xbe1c47f8	-0.15261829
161	0x3f091e0e	0.53561485
162	0xbe7fe399	-0.24989165
163	0xbf2523d6	-0.64507806
164	0xbe07328c	-0.13202876
165	0x3c0a79ba	0.008451873
166	0x3e11b800	0.14230347
167	0xbec9ad39	-0.3938997
168	0x3ee03ba0	0.4379549
169	0x3e14faab	0.14548747
170	0xbd78a9c5	-0.06070878
171	0xbca4a23f	-0.020096896
172	0xbe22b140	-0.15887928
173	0x3b875885	0.0041304254
174	0xbeac04d2	-0.33597428
175	0x3e169973	0.14706974
176	0x3f321bd3	0.69573706
177	0xbf71059d	-0.9414919
178	0xbed9afb5	-0.42516866
179	0xbe23cd51	-0.1599629
180	0xbe77d2d3	-0.24201517
181	0x3ea64bfa	0.3247984
182	0x3d345880	0.044029713
183	0xbeddfca3	-0.4335681
184	0xbecc0574	-0.3984791
185	0xbe8706c7	-0.26372358
186	0x3e698987	0.22806369
187	0xbe9a46db	-0.30132183
188	0xbe61a267	-0.22034608
189	0x3ee66c32	0.4500442
190	0xbd1ca784	-0.038245693
191	0xbe55ca4b	-0.2087795
192	0x3ee34677	0.44389698
193	0xbe65efc1	-0.2245474
194	0x3dbf00bc	0.09326312
195	0x3f320ffc	0.6955564
196	0xbda015a8	-0.078166306
197	0xbec04011	-0.3754888
198	0xbcac4d93	-0.021033084
199	0x3d7f123a	0.06227324
200	0x3e98c164	0.29835045
201	0xbdbb82ec	-0.09155831
202	0x3de24c2e	0.11049686
203	0x3eba5429	0.36392334
204	0x3cbf7071	0.023369046
205	0x3e2c124d	0.16803856
206	0xbb880f9d	-0.004152252
207	0xbc960c26	-0.01831634
208	0x3d2afce6	0.04174509
209	0x3e9072e1	0.28212646
210	0xbf01be83	-0.5068132
211	0xbe71bbb0	-0.23606753
212	0x3f0df51c	0.5545213
213	0xbe99b0cd	-0.300177
214	0xbe45a444	-0.19300944
215	0x3f79f434	0.9763825
216	0xbe69b9b6	-0.2282475
217	0x3cb099e3	0.021557754
218	0x3b6295df	0.0034574193
219	0x3e682702	0.2267113
220	0x3f4a6abe	0.79069126
221	0xbdcafff1	-0.09912098
222	0xbbe49c11	-0.0069766124
223	0xbd21eaa0	-0.039530396
224	0xbc89c44a	-0.01681723
225	0xbe78b554	-0.24287921
226	0x3e91475e	0.2837476
227	0x3e914a1a	0.28376848
228	0xbd94d75b	-0.07267638
229	0x3e3755f6	0.17903885
230	0xbd1c1109	-0.038102183
231	0x3e9de1d2	0.3083635
232	0xbe282e80	-0.16423988
233	0xbe513fab	-0.20434444
234	0x3e044972	0.12918642
235	0xbc61b573	-0.013776171
236	0xbe72a8e2	-0.23697236
237	0xbe566cb5	-0.20939906
238	0xbe389003	-0.18023686
239	0xbe898898	-0.26862025
240	0x3e211659	0.15731181
241	0xbe9ec4ad	-0.31009427
242	0x3e305059	0.1721815
243	0x3db4d73b	0.088301145
244	0xbea64bfc	-0.32479846
245	0x3eba38e1	0.3637152
246	0x3e6466b3	0.22304802
247	0x3ef7e31c	0.48415458
248	0x3e4bf11a	0.19916192
249	0x3da39324	0.07987049
250	0xbebe9c54	-0.37228644
251	0x3eb836a6	0.35979193
252	0x3debd6fc	0.115156144
253	0xbe9d7cb7	-0.30759212
254	0x3e097f37	0.13427435
255	0xbb013a44	-0.0019718567

context_transformer_0/kq_shared_bottleneck/norm/mul;context_transformer_0/kq_shared_bottleneck/norm/add;context_transformer_0/attention/query/einsum/Einsum;context_transformer_0/attention/query/add;context_transformer_0/attention/value/einsum/Einsum;context_transformer_0/attention/query/add/ReadVariableOp/resource;context_transformer_0/attention/Mul;context_transformer_0/attention/Mul/y f4 [32]
0	0x3e1b75b7	0.15181623
1	0x3c602a00	0.013681889
2	0x3d86a837	0.06575053
3	0xbe5c88be	-0.21536538
4	0x3e00ea8d	0.12589474
5	0xbe0b9c2e	-0.13633797
6	0xbd13770f	-0.036002215
7	0x3e5bfa80	0.21482277
8	0xbd33edb9	-0.043927882
9	0xbe4a90ce	-0.19781801
10	0x3e0039dc	0.12522072
11	0xbd88ce13	-0.066799305
12	0xbe0a7790	-0.13522172
13	0x3decf35e	0.11569856
14	0x3ddf9e14	0.10918823
15	0x3d83c599	0.06434173
16	0xbe97acd3	-0.29624042
17	0xbe8b15d0	-0.2716508
18	0x3dedc236	0.116093084
19	0x3dbbb292	0.09164919
20	0x3d989777	0.074507646
21	0x3e99380c	0.29925573
22	0x3e0758ff	0.13217543
23	0xbe945123	-0.28968152
24	0xbbbfa7c7	-0.005848858
25	0xbd2eec00	-0.042705536
26	0xbe129c9d	-0.14317556
27	0xbe8aa153	-0.27076206
28	0xbd6d2680	-0.057898045
29	0x3e1526c7	0.14565574
30	0xbe818e79	-0.2530401
31	0xbd8df4e4	-0.06931475

context_transformer_0/kq_shared_bottleneck/norm/mul;context_transformer_0/kq_shared_bottleneck/norm/add;context_transformer_0/attention/query/einsum/Einsum;context_transformer_0/attention/query/add;context_transformer_0/attention/value/einsum/Einsum;context_transformer_0/attention/query/add/ReadVariableOp/resource;context_transformer_0/attention/Mul;context_transformer_0/attention/Mul/y1 f4 [32, 32]
0	0x3e4c076a	0.19924703
1	0x3d68ae97	0.056807127
2	0x3d9a5566	0.0753582
3	0xbe0da9d4	-0.13834316
4	0x3d169192	0.03675992
5	0xbdd19392	-0.10233225
6	0xbd7bd2cf	-0.06148034
7	0x3de4346f	0.111428134
8	0xbd425214	-0.047441557
9	0xbcec8fd5	-0.028877178
10	0xbdc3b754	-0.095564514
11	0xbdb0e045	-0.08636526
12	0x3c971567	0.018442823
13	0xbdb4d855	-0.088303246
14	0x3bc6fbf4	0.0060725156
15	0x3ddc5b90	0.10759652
16	0x3d5ed8c6	0.05440595
17	0xbd50fba2	-0.051021226
18	0x3c8d8d3b	0.017279258
19	0x3d94f0d4	0.07272497
20	0x3e42f311	0.19038035
21	0xbd505383	-0.050860893
22	0xbd8b9ee4	-0.06817415
23	0x39679178	0.00022084068
24	0x3d5921a9	0.053010616
25	0xbe8732e1	-0.26406005
26	0x3ca1605f	0.019699274
27	0x3c251f79	0.010078304
28	0xbd1d5b43	-0.038417112
29	0x3d4222ce	0.047396474
30	0xbd0d0a27	-0.03443351
31	0x3e4b1533	0.19832306
32	0x3f15273b	0.58262986
33	0x3dd91a1f	0.10600685
34	0xbd8924d6	-0.06696479
35	0xbd899404	-0.06717685
36	0x3d1e130e	0.03859239
37	0xbcff0520	-0.031130373
38	0xbe17ea5e	-0.14835498
39	0xbd3f2df4	-0.046674684
40	0x3cc6ee22	0.024283472
41	0x3d8481e3	0.064700864
42	0xbcb87237	-0.0225154
43	0x3d85b407	0.06528478
44	0x3d85f353	0.06540551
45	0x3d9bef6b	0.07614025
46	0x3d928791	0.071547635
47	0x3d9a2b41	0.07527781
48	0xbe082733	-0.13296203
49	0x3e07720b	0.13227098
50	0xbc7af4e0	-0.015317172
51	0xbd8db991	-0.069201596
52	0x3d9097a3	0.070601724
53	0xbcb420ab	-0.021988234
54	0x3d04222c	0.03225915
55	0xbd02508d	-0.0318151
56	0xbcdde413	-0.027086293
57	0xbe457c0c	-0.19285601
58	0x3cf27734	0.029597856
59	0xbd1afdea	-0.037839808
60	0x3d00cb13	0.031443667
61	0x3ddcd231	0.10782278
62	0xbdf1b121	-0.11801363
63	0x3d9c9751	0.07646049
64	0x3e9b929e	0.30385298
65	0x3ce74e8f	0.028235702
66	0x3d84905e	0.06472848
67	0x3d343b48	0.044001848
68	0x3e4e8420	0.20167589
69	0xbdfc9e30	-0.12334859
70	0x3e86e044	0.26342976
71	0x3e3a5a28	0.18198454
72	0xbe41acdf	-0.18913601
73	0xbc4259d2	-0.011862235
74	0xbe94f528	-0.2909329
75	0x3c06f5ee	0.008237345
76	0xbe362f0b	-0.17791383
77	0xbb3b1beb	-0.0028550576
78	0x3e1d7d28	0.15379775
79	0x3d703bad	0.05865066
80	0xbe29c024	-0.16577202
81	0xbe8ba318	-0.27272868
82	0x3b271b19	0.002549833
83	0x3e314607	0.1731187
84	0x3b567e1a	0.003272897
85	0x3e0d0078	0.1376971
86	0x3de40dea	0.111354664
87	0x3a2631ea	0.0006339835
88	0x3e1b83ca	0.15186992
89	0xbdb5220d	-0.08844385
90	0xbdaefc4b	-0.08544215
91	0x3d550341	0.052005056
92	0xbd895047	-0.06704765
93	0x3d282ca6	0.041058205
94	0xbd2c5b7a	-0.042079426
95	0x3dbdd9b0	0.09270036
96	0xbe54a274	-0.20765096
97	0xbdc4ba19	-0.09605808
98	0xbdb6038d	-0.08887396
99	0x3d86fc71	0.06591118
100	0xbe107762	-0.14108041
101	0x3e2d829f	0.16944359
102	0x3d63d0f6	0.055619203
103	0xbdbbe3e4	-0.09174326
104	0x3da9ef15	0.082975544
105	0xbd979246	-0.07400946
106	0x3dd22ffe	0.1026306
107	0x3de7724a	0.11301096
108	0x3c077902	0.008268597
109	0x3d8ce1a8	0.06878978
110	0xbdeeae3b	-0.116543256
111	0xbde239f1	-0.11046208
112	0x3d20d154	0.03926213
113	0xbcc9f55a	-0.024653126
114	0xbd628fb0	-0.055312812
115	0xbd95c7f7	-0.07313531
116	0xbd13fb94	-0.036128595
117	0x3d5dfeb6	0.05419799
118	0x3d6a92b5	0.057268817
119	0x3b1b3077	0.002368001
120	0xbdeb64ff	-0.11493873
121	0x3dadc98c	0.08485708
122	0xbd86abe2	-0.06575753
123	0x3d764790	0.06012684
124	0x3d4f30dd	0.05058371
125	0xbcb6bdfc	-0.022307388
126	0x3dd92ea9	0.10604603
127	0xbdcbf66c	-0.099591106
128	0x3e37cc3e	0.17949006
129	0x3d2d0f04	0.04225065
130	0x3dfcce4f	0.12344038
131	0xbe23dbe2	-0.16001847
132	0xbd128b14	-0.035777166
133	0xbdbe1232	-0.09280814
134	0xbd762d8f	-0.06010204
135	0x3e0d1fb8	0.13781631
136	0xbdea3232	-0.11435355
137	0xbe0964cd	-0.13417359
138	0xbc965ec5	-0.018355737
139	0xbdd1aa12	-0.102375165
140	0x3d09caf1	0.033640806
141	0xbdfee896	-0.12446706
142	0xbdbf8114	-0.093507916
143	0x3d959d67	0.07305413
144	0x3df9f584	0.122050315
145	0xbe09a72f	-0.13442682
146	0x3d2db2a8	0.042406708
147	0x3d849d06	0.06475262
148	0x3ec110ed	0.37708226
149	0xbcadb13b	-0.021202674
150	0xbddb14e5	-0.10697345
151	0x3d7aad0e	0.061200194
152	0x3c9a7993	0.0188568
153	0xbe83d7b5	-0.2575051
154	0xbc399b33	-0.011328506
155	0x3db31d91	0.08745874
156	0x3c02af4b	0.007976363
157	0x3d3f245e	0.04666554
158	0x3d2e4401	0.042545322
159	0x3e413638	0.18868339
160	0xbef37903	-0.47553262
161	0x3cd02291	0.025407108
162	0xbe2fb0b3	-0.17157249
163	0xbdd04c03	-0.10170748
164	0xbd841213	-0.0644876
165	0x3dc34244	0.095341235
166	0x3df9aaab	0.121907555
167	0xbe045640	-0.12923527
168	0x3e46464f	0.19362758
169	0xbd99fd4b	-0.07519015
170	0xbe4910a5	-0.19635256
171	0x3db3be69	0.08776552
172	0x3cc8b960	0.024502456
173	0x3e03591c	0.12826961
174	0xbb92ddf1	-0.004482024
175	0x3dc3e479	0.09565062
176	0x3d83f5b4	0.064433485
177	0xbdf5c63f	-0.12000703
178	0xbe351c69	-0.17686619
179	0xbdae1b72	-0.085013285
180	0xbe10714d	-0.14105721
181	0xbd8be3d5	-0.06830565
182	0x3ce8ed9e	0.028433617
183	0xbe00dac7	-0.12583457
184	0xbe37b0be	-0.17938516
185	0xbeaa1717	-0.3322074
186	0xbd11a6ef	-0.03555959
187	0x3d34c9fd	0.044137944
188	0xbce96860	-0.028492153
189	0x3d84c957	0.06483715
190	0xbd05a4c1	-0.032627825
191	0x3e4b7795	0.19869836
192	0x3f428099	0.75977474
193	0x3cf04470	0.029329509
194	0xbceb49f9	-0.028721796
195	0x3db55284	0.08853629
196	0xbd362790	-0.044471323
197	0xbcdd9dd4	-0.027052797
198	0xbdf2c781	-0.118544586
199	0xbca63de1	-0.020293178
200	0x3d89a410	0.067207456
201	0xbd7c1043	-0.061538946
202	0x3c9a11e7	0.018807365
203	0x3e380f0e	0.17974493
204	0x3ba5cfbb	0.005060164
205	0x3d8bd96e	0.06828581
206	0xbd972a7f	-0.07381152
207	0x3d1d4a78	0.038401097
208	0xbdd48f88	-0.10378939
209	0x3dd505da	0.10401507
210	0xbd408f69	-0.047011767
211	0xbd8ab587	-0.06772905
212	0x3e82c89e	0.25543684
213	0x3ca43dd1	0.020049008
214	0xbcf12abd	-0.029439325
215	0x3e275a08	0.16342938
216	0xbdb27a50	-0.087147355
217	0xbdae4761	-0.08509708
218	0xbdc1e0a8	-0.09466678
219	0x3d366e38	0.044538707
220	0x3e42453b	0.18971722
221	0x3ce822b2	0.028336857
222	0xbc9cec6c	-0.019155703
223	0x3cbeabe4	0.023275323
224	0x3e51db41	0.20493795
225	0x3e00ec55	0.12590154
226	0x3dcfa3ec	0.101386875
227	0xbdb57ea2	-0.08862044
228	0x3de633d3	0.112403534
229	0xbe1af180	-0.15131187
230	0xbddf3a0e	-0.10899745
231	0x3da8af5f	0.082365744
232	0xbd91ab01	-0.071126945
233	0x3dc1a502	0.09455301
234	0xbd6d702a	-0.057968296
235	0xbdd07482	-0.10178472
236	0x3d19d98b	0.03756098
237	0xbda5c21f	-0.08093666
238	0x3d914b68	0.07094461
239	0x3de4c206	0.111698195
240	0xbb1d052a	-0.0023959377
241	0x3d82821b	0.06372472
242	0x3d60d124	0.054886952
243	0x3d280674	0.04102178
244	0x3da4c28f	0.080449216
245	0xbda389e6	-0.079852864
246	0xbda9ba6b	-0.082875095
247	0xbc6ac024	-0.014328036
248	0x3dcbc5a5	0.09949807
249	0xbdb49c5f	-0.08818888
250	0x3daa5e53	0.08318772
251	0xbda0ec68	-0.07857591
252	0xbcfb0ec0	-0.030646682
253	0x3d68cad4	0.056834057
254	0xbdc11fba	-0.094298795
255	0x3dcb0aea	0.09914191

context_transformer_0/ffn_layer_0/intermediate_dense/einsum/Einsum;context_transformer_0/ffn_layer_0/intermediate_dense/Relu;context_transformer_0/ffn_layer_0/intermediate_dense/add f4 [32]
0	0xbe2974ba	-0.16548434
1	0xbe9485bd	-0.29008284
2	0xbea8e610	-0.32988024
3	0x3ca67b12	0.020322356
4	0xbea7869e	-0.32719892
5	0xbe2b3c94	-0.16722327
6	0xbe3badf6	-0.1832808
7	0xbdfce225	-0.12347821
8	0xbea7cc2e	-0.32772964
9	0xbdf0f094	-0.11764637
10	0xbe1902e8	-0.14942515
11	0xbf146700	-0.57969666
12	0xbe77f85a	-0.24215832
13	0xbe7ab2d1	-0.24482276
14	0xbe6449bd	-0.22293754
15	0xbd80abe9	-0.06282789
16	0xbe08c4a3	-0.13356261
17	0xbe7473ac	-0.2387225
18	0xbd1b3587	-0.037892845
19	0xbeb1426d	-0.3462099
20	0xbec8112f	-0.3907561
21	0xbd809de1	-0.06280113
22	0xbe5aae1f	-0.21355484
23	0xbd2dc1ec	-0.042421266
24	0xbea47c33	-0.32126006
25	0xbc4de66b	-0.012567143
26	0xbe61f354	-0.22065479
27	0xbe2132f6	-0.15742096
28	0xbea876b0	-0.3290305
29	0xbe3a46d9	-0.18191089
30	0xbefa520c	-0.48890722
31	0xbe5c5409	-0.21516432

context_transformer_0/attention/norm/mul;context_transformer_0/attention/norm/add;context_transformer_0/ffn_layer_0/intermediate_dense/einsum/Einsum;context_transformer_0/ffn_layer_0/intermediate_dense/Relu;context_transformer_0/ffn_layer_0/intermediate_dense/add f4 [32, 32]
0	0x3e51a8c0	0.2047453
1	0x3d44d7d2	0.048057385
2	0xbd9cd3a1	-0.076575525
3	0x3eda64f4	0.42655146
4	0xbe1555e1	-0.14583541
5	0x3d5c70a9	0.05381838
6	0x3cfdd74c	0.03098645
7	0xbcebcf61	-0.02878541
8	0xbe152d0b	-0.14567964
9	0xbe886a8b	-0.26643786
10	0xbe1acb48	-0.15116608
11	0xbd4d1e3f	-0.050077673
12	0x3e4c8f26	0.19976482
13	0xbe810a55	-0.25203195
14	0xbcffa6da	-0.03120749
15	0x3d30c884	0.043159977
16	0x3eae16ea	0.34001857
17	0x3d06c29a	0.03290043
18	0x3ea7d46a	0.32779247
19	0x3deb8b05	0.11501125
20	0xba9dfc28	-0.0012053298
21	0xbe80b878	-0.25140738
22	0xbe4dcafa	-0.2009696
23	0xbe28e0b9	-0.16491975
24	0xbe1790ff	-0.14801405
25	0x3d5e6fd6	0.054305874
26	0xbea00f89	-0.31261852
27	0xbe9a051a	-0.30082017
28	0x3d341736	0.04396745
29	0x3da498dd	0.08036969
30	0x3aebe0ae	0.0017996037
31	0xbee8494a	-0.45368415
32	0xbde19ee1	-0.11016632
33	0xbdf1be6d	-0.11803899
34	0x3d926873	0.07148828
35	0x3e18a74e	0.14907572
36	0x3e81f817	0.2538459
37	0x3bc22732	0.0059250826
38	0xbe90a16b	-0.28248152
39	0xbea5022c	-0.3222822
40	0xbdacec52	-0.08443512
41	0xbdc8f041	-0.0981145
42	0xbe7d37c9	-0.24728312
43	0x3d9e613a	0.07733388
44	0x3ef47ffe	0.477539
45	0x3e0cfd9b	0.13768618
46	0x3e1c6e3c	0.15276426
47	0xbe5c7af1	-0.21531273
48	0xbe7480d7	-0.23877273
49	0xbbe431f4	-0.0069639627
50	0xbcd67038	-0.026176557
51	0xbbec1fe8	-0.007205952
52	0xbd5e042b	-0.054203194
53	0x3e37b0dd	0.17938562
54	0x3d3aa4d6	0.045567356
55	0x3d629a75	0.055323083
56	0x3d9aa44d	0.07550869
57	0xbd76d791	-0.060264174
58	0x3ea9c645	0.3315908
59	0x3e2d5565	0.16927107
60	0xbe1e6fe4	-0.1547237
61	0x3c1de870	0.009637937
62	0xbde3e2cf	-0.11127245
63	0xbd653fff	-0.055969235
64	0xbe24f560	-0.16109228
65	0xbea368ab	-0.31915793
66	0xbd365e8b	-0.044523757
67	0x3e51c3ed	0.20484896
68	0xbdc9fcf5	-0.09862701
69	0x3e065376	0.13117775
70	0x3da22f12	0.07919134
71	0x3e02f734	0.12789613
72	0xbd2bd41e	-0.041950338
73	0x3ed86815	0.42266908
74	0xbdb105cc	-0.08643684
75	0x3d12f381	0.035876755
76	0x3eb78fa5	0.3585178
77	0xbe3d8b8c	-0.18510264
78	0x3d53b33f	0.051684614
79	0xbce5dd5e	-0.028059658
80	0xbe991345	-0.29897514
81	0xbdad45a2	-0.08460547
82	0xbe39b055	-0.18133672
83	0x3eacf0aa	0.33777362
84	0xbda25819	-0.079269595
85	0x3e24e051	0.16101195
86	0x3ec7d11b	0.39026722
87	0x3d04b33e	0.0323975
88	0x3d0d3a5d	0.034479488
89	0x3e251c78	0.16124141
90	0x3e90433f	0.28176305
91	0xbea94143	-0.33057603
92	0x3ede9df6	0.4347989
93	0xbe51a267	-0.20472108
94	0xbea8563f	-0.328783
95	0x3e503b3a	0.20335093
96	0x3e122286	0.14270982
97	0xbdd3e3d3	-0.103461884
98	0x3e7aa984	0.24478728
99	0x3e8c37c4	0.27386296
100	0x3de3da61	0.11125637
101	0xbe883e63	-0.26610097
102	0x3cb20062	0.021728698
103	0x3d64918e	0.055802874
104	0xbcc336e4	-0.023829885
105	0x3e13620d	0.14392872
106	0xbee3725f	-0.44423196
107	0xbdc03308	-0.093847334
108	0xbd8b67da	-0.068069175
109	0xbdacb4d0	-0.08432925
110	0x3e4f0fee	0.2022092
111	0x3e04fa0c	0.1298601
112	0x3e422c23	0.1896215
113	0xbdc3f839	-0.09568829
114	0x3c60d292	0.013722079
115	0x3e1e94a5	0.15486391
116	0xbc58761a	-0.013211751
117	0x3e20901a	0.1567997
118	0xbe508b94	-0.20365745
119	0xbbd550ec	-0.006509891
120	0xbc3496db	-0.011022295
121	0xbe1d409b	-0.15356676
122	0x3d9c6bef	0.07637774
123	0xbe8870a4	-0.26648438
124	0xbc8dec5c	-0.017324619
125	0x3e9809e5	0.2969505
126	0x3d9b8bfd	0.0759506
127	0xbe3af683	-0.182581
128	0x3df63ff9	0.120239206
129	0xbe314770	-0.17312407
130	0x3f0d2bd0	0.5514498
131	0x3ddb2b08	0.10701567
132	0x3ee0f4a6	0.43936652
133	0x3c6282ca	0.013825128
134	0xbdc56c1f	-0.09639763
135	0xbe8354b0	-0.2565055
136	0xbcd5d969	-0.026104646
137	0x3e605a6e	0.21909496
138	0xbe265cda	-0.16246358
139	0xbd8c51dd	-0.06851552
140	0x3db32621	0.08747507
141	0x3cf28a07	0.029606832
142	0x3e430ace	0.1904709
143	0xbc6713fb	-0.014103885
144	0xbee43e28	-0.4457867
145	0x3ddd1177	0.10794347
146	0xbe356de8	-0.17717707
147	0xbe2c6df7	-0.16838823
148	0x3dd5c596	0.10438077
149	0x3d13888c	0.036018893
150	0xbdba2a64	-0.090901166
151	0x3ca4e65a	0.020129371
152	0x3e195cc5	0.14976795
153	0xbd1bd218	-0.038042158
154	0x3efdb139	0.49549273
155	0x3ec7f209	0.39051846
156	0x3dfb325f	0.12265467
157	0xbdd28b71	-0.102805026
158	0xbe93c4fa	-0.2886122
159	0x3edd1710	0.43181658
160	0x3d8a356b	0.0674847
161	0x3eaac986	0.33356875
162	0x3bc5e52e	0.0060392832
163	0x3f0122a8	0.50443506
164	0xbe37acf9	-0.17937078
165	0xbdffac0e	-0.12483989
166	0x3e437116	0.19086108
167	0xbbb3f4bb	-0.0054918206
168	0x3e3be88f	0.18350433
169	0x3d9ce4a4	0.07660797
170	0xbd69f125	-0.05711474
171	0xbe1bd739	-0.1521882
172	0x3e324bc4	0.17411715
173	0xbe9e74f3	-0.309486
174	0x3dfb99d4	0.122852
175	0xbda594a5	-0.08084992
176	0x3e668330	0.22510982
177	0xbd51bd57	-0.05120596
178	0xbe81e535	-0.25370184
179	0x3d582f41	0.05277944
180	0xbcc4cc39	-0.024023162
181	0x3c541367	0.012944079
182	0x3e0eb60d	0.13936634
183	0x3ea9e897	0.33185264
184	0x3dd4d2ec	0.10391793
185	0x3dc2f3e1	0.095191725
186	0x3e6b23e6	0.22962913
187	0x3ec470d0	0.3836732
188	0xbdf4b59d	-0.119487025
189	0x3c90f83a	0.017696489
190	0x3c1b6ef3	0.009486902
191	0xbf0ddf57	-0.55418915
192	0xbe9677d6	-0.29388303
193	0xbdf302c1	-0.1186576
194	0xbc4f7e5d	-0.012664405
195	0x3e9c23ac	0.30495965
196	0xbd948ecb	-0.07253798
197	0x3e965055	0.29358163
198	0xbd06385e	-0.0327686
199	0xbc841fe1	-0.016128482
200	0xbc1b5c58	-0.009482466
201	0x3db3e0fc	0.08783147
202	0x3f079929	0.5296808
203	0xbbf2097f	-0.007386386
204	0x3eb35ce9	0.35031822
205	0xbdcfc2d2	-0.10144581
206	0x3eb0e296	0.3454787
207	0xbc761c9b	-0.0150214685
208	0xbea98587	-0.33109686
209	0xbd6f1c19	-0.058376405
210	0xbdee4fdb	-0.11636325
211	0x3d1366f4	0.035986856
212	0xbd7a443a	-0.061100222
213	0xbea3e842	-0.32013136
214	0x3ec1151a	0.37711412
215	0x3e01d1fd	0.1267776
216	0xbe534f69	-0.20635761
217	0x3e4d9b5c	0.20078796
218	0x3df6a150	0.12042487
219	0x3e7c4bb2	0.2463825
220	0x3e90ed8d	0.28306237
221	0x3dcba51a	0.099436
222	0xbe217c28	-0.15770018
223	0x3e3a1e84	0.18175703
224	0x3bf67f46	0.0075224964
225	0x3ea1e3bd	0.31619063
226	0x3b7b019f	0.0038300527
227	0xbd9f3b73	-0.07775011
228	0xbe8bf785	-0.2733728
229	0xbd4d3411	-0.050098483
230	0x3d915fbf	0.0709834
231	0xbde5ad9b	-0.11214753
232	0xbc9e3397	-0.01931171
233	0x3ebda31a	0.370385
234	0xbd71e840	-0.05905938
235	0xbd7b557f	-0.061360832
236	0xbe16c0cd	-0.14721985
237	0x3decfe54	0.11571947
238	0x3ecf3255	0.40468088
239	0x3e82c049	0.25537327
240	0xbf3a163e	-0.7269019
241	0x3d99b8fc	0.07505986
242	0xbc523206	-0.012829309
243	0x3d6ee4b1	0.058323566
244	0xbd92e17e	-0.071719155
245	0xbd750a22	-0.059824117
246	0x3e5cddb3	0.21568947
247	0x3dd1894f	0.10231268
248	0xbd558e88	-0.05213788
249	0xbde1ceea	-0.11025794
250	0xbe74a653	-0.23891573
251	0x3cb1ace8	0.021688893
252	0xbe845ece	-0.2585358
253	0x3ed025ac	0.4065374
254	0x3cbf349d	0.023340518
255	0xbe8569fb	-0.2605742

context_transformer_0/ffn_layer_1/intermediate_dense/einsum/Einsum;context_transformer_0/ffn_layer_1/intermediate_dense/Relu;context_transformer_0/ffn_layer_1/intermediate_dense/add f4 [32]
0	0xbc17cacf	-0.009264662
1	0xbe554ca1	-0.20830013
2	0xbe451943	-0.19247918
3	0xbe6411b8	-0.22272384
4	0xbe94f77f	-0.29095075
5	0xbd4febc8	-0.050761968
6	0xbe982909	-0.29718807
7	0xbe24d96f	-0.1609857
8	0xbdf58032	-0.11987342
9	0xbe442e64	-0.19158322
10	0xbe671b4e	-0.2256901
11	0xbea0934b	-0.31362376
12	0xbe78827b	-0.24268524
13	0xbccba680	-0.024859667
14	0xbe21825b	-0.15772383
15	0xbe36a8ad	-0.17837782
16	0xbeabac82	-0.3353005
17	0x3bbebc11	0.005820759
18	0xbe374d5c	-0.17900604
19	0xbd75811f	-0.059937593
20	0xbe4f47d9	-0.20242251
21	0xbe8bacab	-0.27280173
22	0xbec022cd	-0.3752655
23	0xbe0adde7	-0.13561212
24	0xbe818276	-0.25294846
25	0xbe2b199d	-0.1670899
26	0xbe3949fe	-0.18094632
27	0xbe8ddcf5	-0.2770764
28	0x3bf90851	0.0075998683
29	0xbe4f4d05	-0.20244224
30	0xbe6fde79	-0.2342471
31	0xbe69a61a	-0.22817269

context_transformer_0/ffn_layer_0/norm/mul;context_transformer_0/ffn_layer_0/norm/add;context_transformer_0/ffn_layer_1/intermediate_dense/einsum/Einsum;context_transformer_0/ffn_layer_1/intermediate_dense/Relu;context_transformer_0/ffn_layer_1/intermediate_dense/add f4 [32, 32]
0	0x3d636bdb	0.05552278
1	0xbc0889df	-0.008333652
2	0xbcfcf274	-0.03087733
3	0x3d722397	0.059115972
4	0x3e03bcbb	0.12864964
5	0x3d6efebb	0.0583484
6	0x3ec2649b	0.3796738
7	0xbc31db46	-0.0108555015
8	0x3edfdf2f	0.43724963
9	0xbc82f994	-0.015988149
10	0xbd96c6d3	-0.073621415
11	0xbdba0dcb	-0.09084662
12	0x3e0cb34b	0.1374027
13	0xbd8a60af	-0.06756722
14	0x3e9f00b3	0.3105522
15	0x3ef9d65e	0.48796362
16	0xbe55d4f4	-0.20882016
17	0x3e3c8396	0.18409571
18	0x3e32dd69	0.17467274
19	0x3e25ea55	0.16202672
20	0x3e853f3a	0.260248
21	0x3d9494ff	0.07254981
22	0x3ea7843d	0.32718077
23	0xbd543141	-0.051804785
24	0x3ddf2904	0.10896495
25	0xbdc91ac5	-0.09819559
26	0x3e9817f0	0.29705763
27	0xbd48eb68	-0.049052626
28	0x3da3c05c	0.07995674
29	0xbcaf8a59	-0.021428274
30	0x3e6ff077	0.23431574
31	0xbe184fa9	-0.14874138
32	0xbe01ff9d	-0.12695165
33	0x3df881fb	0.12134167
34	0x3eaa57ee	0.3327021
35	0xbc211c35	-0.009833385
36	0xbe14100a	-0.14459243
37	0xbd7f5490	-0.062336504
38	0xbec9cb56	-0.39412946
39	0xbeefc957	-0.46833298
40	0x3de9f977	0.11424535
41	0xbe051d98	-0.1299957
42	0xbc8602d7	-0.016358776
43	0xbdac7a8a	-0.0842181
44	0x3d4bd4e8	0.04976359
45	0x3d9c6613	0.076366566
46	0xbea239e7	-0.316848
47	0xbd69c5ce	-0.057073407
48	0xbd61119a	-0.054948427
49	0xbdab5d3a	-0.08367391
50	0xbe4e7255	-0.20160802
51	0xbe2a2b3b	-0.16618054
52	0xbe1dea0f	-0.15421318
53	0x3d86a30a	0.06574066
54	0xbdbe534c	-0.09293231
55	0xbd2bfa24	-0.0419866
56	0xbd95d11f	-0.07315277
57	0x3e10211d	0.14075132
58	0xbde4cec0	-0.11172247
59	0xbe27df19	-0.16393699
60	0xbe638882	-0.22220042
61	0xbe72b4aa	-0.2370173
62	0xbf0038b0	-0.500865
63	0xbe9ba0d4	-0.3039614
64	0x3e2d00bd	0.16894813
65	0xbdb412cd	-0.087926485
66	0xbe3b3456	-0.18281683
67	0x3c5234b0	0.0128299445
68	0xbd8b2352	-0.06793846
69	0xbdcfd435	-0.10147897
70	0xbcb38e1f	-0.021918355
71	0x3d5f0e04	0.054456726
72	0xbdc77fd6	-0.0974118
73	0x3e426c87	0.18986712
74	0xbe7bfd91	-0.24608447
75	0xbdfe5cd5	-0.1242005
76	0xbe8bea63	-0.2732726
77	0x3e8ec368	0.27883458
78	0x3e10f083	0.14154248
79	0x3e0e96af	0.13924669
80	0xbe7ad590	-0.2449553
81	0x3df0bb7a	0.11754508
82	0x3e2217a7	0.15829335
83	0x3e04ad1d	0.12956662
84	0xbde6a361	-0.11261631
85	0xbde39d72	-0.11114015
86	0x3dc75875	0.09733669
87	0xbe3339c9	-0.17502512
88	0xbe1fc700	-0.15603256
89	0xbe14b727	-0.14522992
90	0x3d70f009	0.058822665
91	0x3e92fd0c	0.28708684
92	0x3e2251e9	0.15851559
93	0x3dbef411	0.09323896
94	0xbe656d2d	-0.22404929
95	0xbe4dff9e	-0.20117041
96	0x3e00bd85	0.12572296
97	0x3d98da7f	0.0746355
98	0xbe1e8859	-0.154817
99	0x3e5ace21	0.21367694
100	0xbd842fc0	-0.0645442
101	0x3ef2f478	0.4745214
102	0xbc738c46	-0.014864987
103	0xbd2c35d8	-0.042043537
104	0xbe9a3e43	-0.30125627
105	0xbe2bf0b6	-0.16791043
106	0xbe05f7f3	-0.13082866
107	0x3d7a836c	0.06116049
108	0xbd9d8d40	-0.07692957
109	0xbe828928	-0.25495267
110	0x3e43975c	0.19100708
111	0xbe73ae83	-0.2379704
112	0xbe90c950	-0.2827859
113	0xbcd80c9c	-0.0263732
114	0x3e272632	0.16323164
115	0x3ceb2dcb	0.02870836
116	0xbe953be3	-0.29147252
117	0xbd6a0989	-0.057138
118	0x3e0c506e	0.13702556
119	0xbd814df6	-0.06313698
120	0xbe3ee7e2	-0.18643144
121	0x3eaa5772	0.3326984
122	0xbd81cc71	-0.06337822
123	0xbd8b20de	-0.06793378
124	0xbe3e2220	-0.18567705
125	0x3d53ed4a	0.05173997
126	0x3e8eabcf	0.27865455
127	0xbd8e875f	-0.06959414
128	0x3f0ba0ab	0.54542035
129	0x3c8699df	0.016430793
130	0x3dd7e53f	0.10541772
131	0x3ce6bb01	0.028165342
132	0x3e1753bf	0.1477804
133	0xbdb14716	-0.08656137
134	0x3e57c138	0.21069801
135	0xbd74ff40	-0.059813738
136	0x3e8d67d4	0.27618277
137	0x3ca0817b	0.019592991
138	0xbde1b544	-0.11020902
139	0x3e90a97b	0.28254303
140	0xbd857331	-0.06516112
141	0xbeafcf2d	-0.3433775
142	0x3eaf8689	0.3428233
143	0xbdf76a4c	-0.120808214
144	0x3d7c5177	0.06160113
145	0x3f0f414a	0.55959
146	0xbda6ca14	-0.08144012
147	0xbb8bc84b	-0.00426582
148	0x3e264da7	0.1624056
149	0x3e37a520	0.17934084
150	0x3da2ba75	0.0794572
151	0x3dadc6a0	0.0848515
152	0x3db495d0	0.08817637
153	0xbbbabac1	-0.0056985323
154	0xbd8c742c	-0.068580955
155	0xbd47032d	-0.048587013
156	0x3d9de1bc	0.07709071
157	0x3e73b575	0.23799689
158	0x3e06f238	0.13178337
159	0xbd456233	-0.048189353
160	0x3e6f0ac5	0.23343952
161	0xbdd17359	-0.10227079
162	0x3f0d3a3a	0.5516697
163	0x3d9d5bb2	0.07683505
164	0xbb22f95e	-0.0024867873
165	0x3bacb994	0.005271146
166	0x3e0e1e5c	0.13878769
167	0x3bcd8617	0.0062720883
168	0x3d9ed19a	0.07754822
169	0xbe4b0124	-0.19824654
170	0x3e6a8eae	0.2290599
171	0xbd699f6c	-0.057036802
172	0xbd3eeea2	-0.046614297
173	0xbda63fcc	-0.08117637
174	0x3e3d723f	0.18500613
175	0xbe13b2fd	-0.14423747
176	0x3dd8ce76	0.10586254
177	0xbd66a4c7	-0.056309488
178	0xbce53e4f	-0.027983813
179	0x3da75ebe	0.081723675
180	0x3c23370f	0.009961857
181	0x3ecdb188	0.40174508
182	0xbc42c657	-0.011888108
183	0xbe5e3b1c	-0.21702236
184	0xbe8c2923	-0.27375135
185	0x3e9a13b2	0.3009315
186	0x3e3a88dd	0.18216272
187	0x3d15ff36	0.03662034
188	0x3e34954d	0.17635079
189	0x3d448b10	0.047984183
190	0xbd8e49a6	-0.06947641
191	0x3e86ca45	0.26326194
192	0x3d5916b2	0.05300016
193	0x3df03d69	0.11730463
194	0xbe25295f	-0.16129063
195	0x3e21186e	0.15731975
196	0x3e734f42	0.23760703
197	0x3e3db996	0.18527827
198	0xbcc0a5a8	-0.023516491
199	0xbeb1cb29	-0.3472531
200	0x3da582f9	0.08081622
201	0x3d84e75d	0.064894415
202	0x3dcc2019	0.0996706
203	0xbe41d86d	-0.18930216
204	0xbe8a8e95	-0.27061906
205	0x3e88a132	0.26685482
206	0xbddfb011	-0.10922254
207	0xbd764b3d	-0.060130347
208	0x3d732085	0.059357185
209	0xbd294669	-0.041326914
210	0x3da6825c	0.08130333
211	0x3e11d2e4	0.14240605
212	0xbcee9ec9	-0.029128449
213	0x3ea382d4	0.3193575
214	0xbd1aecb2	-0.037823386
215	0x3e134ffe	0.14385983
216	0x3dfc1d8d	0.12310324
217	0x3ecb75bf	0.3973827
218	0xbda5913e	-0.080843434
219	0xbbc3a654	-0.0059707556
220	0xbc44d130	-0.012012765
221	0xbd6dce55	-0.0580581
222	0xbe20e39b	-0.15711825
223	0xbeb807e9	-0.35943535
224	0xbe07426c	-0.13208932
225	0x3e104862	0.14090112
226	0xbbc0d553	-0.005884805
227	0x3dae9fc6	0.08526568
228	0x3e0c0c68	0.13676608
229	0x3e840456	0.25784558
230	0x3ebdb25d	0.37050143
231	0x3e3e895e	0.18607089
232	0x3dbf052c	0.09327158
233	0x3dfb8919	0.12282009
234	0xbd70923f	-0.05873322
235	0x3d8691e6	0.06570797
236	0x3ea1b00f	0.31579635
237	0x3e3ef033	0.18646316
238	0x3e86f6b3	0.26360092
239	0x3cc5522e	0.024087038
240	0xbe479c2a	-0.19493166
241	0xbe5546c2	-0.20827773
242	0x3eb7fd56	0.35935467
243	0xbe401144	-0.18756586
244	0x3e04b379	0.12959088
245	0x3e5a0d25	0.21294077
246	0xbc640c0a	-0.013918886
247	0x3d3e5cae	0.046475105
248	0xbdcd91fb	-0.10037609
249	0x3eb3dcdd	0.35129443
250	0xbe1d700b	-0.15374772
251	0xbe32794b	-0.17429082
252	0x3e3e3cfc	0.18577951
253	0x3e2a083b	0.16604702
254	0xbd791c17	-0.060817804
255	0xbe1965eb	-0.14980285

context_transformer_0/ffn_layer_2/intermediate_dense/einsum/Einsum;context_transformer_0/ffn_layer_2/intermediate_dense/Relu;context_transformer_0/ffn_layer_2/intermediate_dense/add f4 [32]
0	0xbe7eed0e	-0.24895117
1	0xbeaf4d36	-0.34238595
2	0xbe8f35a1	-0.27970603
3	0xbd5183d6	-0.05115112
4	0xbdc4f7c6	-0.096175715
5	0xbdfe5241	-0.124180324
6	0xbee15f72	-0.44018131
7	0xbda13f36	-0.07873385
8	0xbe6c5ee2	-0.2308307
9	0xbe329edd	-0.17443414
10	0xbe9d8d14	-0.30771697
11	0xbe0c0dd3	-0.13677149
12	0xbe9ee324	-0.3103267
13	0xbe86f251	-0.26356748
14	0xbde730ff	-0.11288642
15	0xbeaefc83	-0.34177026
16	0x3d60c225	0.05487265
17	0xbe73cd18	-0.23808706
18	0xbe4f9cf8	-0.20274723
19	0xbe9f1060	-0.3106718
20	0xbe76c50b	-0.24098603
21	0xbe13d148	-0.14435303
22	0xbdccbcd6	-0.09996955
23	0xbe391788	-0.18075383
24	0xbe91eb61	-0.28499892
25	0xbda3df01	-0.08001519
26	0xbe80154a	-0.25016242
27	0xbd9ba95b	-0.07600661
28	0xbda2fd5a	-0.07958479
29	0xbea3c474	-0.3198582
30	0xbdc02bbc	-0.09383342
31	0xbe9bde93	-0.30443248

context_transformer_0/ffn_layer_1/norm/mul;context_transformer_0/ffn_layer_1/norm/add;context_transformer_0/ffn_layer_2/intermediate_dense/einsum/Einsum;context_transformer_0/ffn_layer_2/intermediate_dense/Relu;context_transformer_0/ffn_layer_2/intermediate_dense/add f4 [32, 32]
0	0x3d88dd03	0.0668278
1	0x3e845864	0.25848687
2	0xbd6fcf64	-0.058547392
3	0xbda1c1db	-0.07898303
4	0x3deaa0cd	0.114564516
5	0xbe097118	-0.13422048
6	0xbd5cf986	-0.0539489
7	0x3e2f5457	0.17122017
8	0x3e1fa136	0.15588841
9	0x3e5fca6e	0.21854565
10	0xbebaaff4	-0.36462367
11	0xbd5aab4d	-0.05338602
12	0x3be65244	0.00702885
13	0x3dcf661f	0.101269
14	0xbda80cff	-0.08205604
15	0xbdac85b4	-0.08423939
16	0xbe38e73f	-0.18056963
17	0x3e6875ff	0.22701262
18	0x3e2d733b	0.16938488
19	0xbd9eade6	-0.07748012
20	0xbd926988	-0.07149035
21	0xbe86dcd7	-0.26340362
22	0xbce6f61a	-0.028193522
23	0xbda860d0	-0.082215905
24	0xbd164fba	-0.036697127
25	0xbe3cdcf8	-0.18443668
26	0xbe15fe06	-0.14647684
27	0xbd17ea64	-0.037088767
28	0xbdfae101	-0.12249947
29	0xbcac50e1	-0.02103466
30	0xbeb81f6b	-0.3596147
31	0xbdfac071	-0.122437365
32	0x3dcc7537	0.099832945
33	0x3de2ff67	0.110838704
34	0x3c89eb00	0.01683569
35	0x3e1c27cb	0.15249555
36	0x3e3398f6	0.17538819
37	0x3c816c76	0.015798789
38	0xbe4fb13e	-0.20282456
39	0xbe2547f0	-0.16140723
40	0x3ba62304	0.005070092
41	0xbe57485d	-0.21023698
42	0x3c9a1c5b	0.018812349
43	0xbd7a1b50	-0.061061203
44	0x3e7da971	0.24771668
45	0x3e148fc5	0.14507969
46	0x3ce6d8eb	0.028179606
47	0xbdcb2165	-0.09918479
48	0x3df44b3a	0.11928411
49	0x3d7eb54c	0.062184617
50	0x3ebba246	0.36647242
51	0x3e941b8a	0.2892726
52	0xbde22c5d	-0.11043618
53	0xbedb57a7	-0.4284031
54	0xbdc5e32b	-0.096624695
55	0x3dce1fb5	0.100646414
56	0xbdfface3	-0.124841474
57	0x3c983385	0.018579254
58	0x3e4586a1	0.19289638
59	0xbeb7dd0f	-0.35910842
60	0x3cec94bf	0.028879521
61	0xbe9ba634	-0.3040024
62	0x3d1d5033	0.038406562
63	0x3db44fc3	0.08804276
64	0xbcb84bcc	-0.02249708
65	0xbd696040	-0.056976557
66	0xbd6e2df3	-0.05814929
67	0xbe17e3fd	-0.14833064
68	0x3e878564	0.26468956
69	0x3ec92a15	0.3928992
70	0xbe8dc79d	-0.27691355
71	0xbe6790d6	-0.22613844
72	0xbd5d9f69	-0.054107103
73	0x3e72e903	0.237217
74	0xbd928fb5	-0.07156316
75	0xbd2d55c9	-0.04231814
76	0x3c9824e4	0.018572278
77	0x3db61f10	0.088926435
78	0x3e14ce98	0.14531934
79	0xbd4331eb	-0.047655027
80	0x3cc8d8d0	0.024517447
81	0xbd40ee13	-0.047102045
82	0xbddcad43	-0.107752346
83	0xbc871472	-0.016489241
84	0xbe0fb2c1	-0.14033033
85	0xbe89dd6f	-0.26926753
86	0xbdcacd86	-0.09902482
87	0xbe4c783f	-0.19967745
88	0xbecb09ca	-0.39655906
89	0x3e44dea6	0.19225559
90	0xbe87814a	-0.26465827
91	0xbddf9c64	-0.10918501
92	0x3de54e54	0.111965805
93	0x3e09eef8	0.13470066
94	0xbd2aa511	-0.041661326
95	0x3dc04ca8	0.09389621
96	0x3e17ebb4	0.14836007
97	0xbdc3fb2b	-0.09569391
98	0x3ea9872f	0.3311095
99	0x3dcbb10b	0.09945878
100	0x3e407610	0.18795037
101	0xbe03f5cf	-0.12886737
102	0xbad6e61b	-0.0016395481
103	0x3d1adbf9	0.03780744
104	0x3d936460	0.071968794
105	0xbe31928d	-0.17341061
106	0xbd7d7b95	-0.061885435
107	0xbe92b673	-0.28654823
108	0xbc99e8aa	-0.0187877
109	0xbcc21925	-0.02369363
110	0xbe4b016a	-0.19824758
111	0xbea8ee60	-0.32994366
112	0x3de4c83c	0.11171004
113	0xbe33efb2	-0.17571905
114	0xbeb2972d	-0.34880963
115	0xbe02b372	-0.12763765
116	0xbe0dbc5a	-0.13841382
117	0xbe2862ce	-0.16443941
118	0x3d16b91b	0.036797624
119	0xbe12a28d	-0.1431982
120	0xbba3eee1	-0.005002842
121	0x3e28d9c4	0.16489321
122	0x3e342eab	0.17595927
123	0x3e29ab6d	0.165693
124	0x3e899d35	0.26877752
125	0x3de89489	0.11356456
126	0xbe4d05ba	-0.20021716
127	0xbe02454c	-0.12721747
128	0x3c7455e5	0.014913057
129	0xbd6bde3e	-0.057584994
130	0x3cf22e24	0.029563017
131	0xbdf6238d	-0.120184995
132	0xbd676f9c	-0.056502923
133	0x3db39650	0.08768904
134	0xbd09c8f8	-0.033638924
135	0xbd4989e7	-0.04920378
136	0xbe10d34c	-0.14143103
137	0xbad5ff4a	-0.0016326692
138	0xba1be4e6	-0.0005946889
139	0x3e098911	0.13431193
140	0xbd67390c	-0.05645089
141	0x3d3b5037	0.045730796
142	0x3e0fcbc9	0.14042582
143	0xbb634435	-0.0034678106
144	0xbd18a13a	-0.037263133
145	0x3dd959e8	0.106128514
146	0xbe8af77c	-0.2714194
147	0x3d0359bb	0.032067996
148	0x3d4097a9	0.047019634
149	0x3bc5945b	0.0060296482
150	0x3e0381e7	0.12842523
151	0x3c55b777	0.01304423
152	0x3d6cddd0	0.057828724
153	0xbe29f1a5	-0.16596086
154	0x3d425a46	0.047449373
155	0xbe05bf70	-0.13061309
156	0xbda44545	-0.080210246
157	0x3e4fa218	0.20276678
158	0xbe12625f	-0.14295338
159	0xbd1af391	-0.03782994
160	0x3e0534a6	0.13008365
161	0x3dd6fd8f	0.10497581
162	0x3de5b8fe	0.11216925
163	0x3dd9d8e8	0.10637075
164	0xbe14c182	-0.14526942
165	0xbeb49777	-0.35271809
166	0x3e473bca	0.19456401
167	0xbc3cd7f1	-0.011526094
168	0x3e2589cd	0.16165848
169	0x3ec12470	0.37723112
170	0x3dab9e41	0.08379794
171	0xbd26474f	-0.04059535
172	0x3e65bfd8	0.22436464
173	0x3d267955	0.040643055
174	0xbd7c6cb3	-0.0616271
175	0x3cd0eac0	0.025502563
176	0x3b7e8e78	0.0038842242
177	0x3d287b4b	0.041133206
178	0xbe8923a3	-0.26785
179	0x3e1a67cc	0.15078658
180	0x3d3940e4	0.0452279
181	0xbdd5befc	-0.10436818
182	0x3e466c0e	0.19377157
183	0xbe358af3	-0.17728786
184	0xbda0818d	-0.0783721
185	0xbe6813a8	-0.22663748
186	0xbde383cb	-0.11109122
187	0xbe6fcfea	-0.23419157
188	0x3e79bdb3	0.24388771
189	0x3e8fa11c	0.28052604
190	0x3d99983a	0.07499738
191	0xbe9084ad	-0.28226224
192	0x3d78c829	0.060737763
193	0x3e1c82a2	0.15284207
194	0x3e88ede0	0.26743984
195	0x3de3e3b8	0.11127418
196	0x3e21bfe7	0.15795861
197	0xbe3dbde1	-0.18529464
198	0x3d6a3559	0.057179783
199	0xbe86cd18	-0.2632835
200	0x3e29d901	0.16586687
201	0xbe001061	-0.12506248
202	0xbe3235c6	-0.17403325
203	0xbe0fdfb9	-0.14050187
204	0x3e96df9a	0.2946747
205	0x3dc46573	0.095896624
206	0x3cf0f82a	0.029415209
207	0x3da350a1	0.07974363
208	0xbc131e0a	-0.00897933
209	0x3e306132	0.17224577
210	0xbbf02377	-0.0073284465
211	0x3dc359f2	0.0953864
212	0xbd28800a	-0.041137733
213	0x3eac810b	0.33692202
214	0xbeadb6cb	-0.33928522
215	0xbdd00730	-0.10157621
216	0xbdc037b4	-0.093856245
217	0xbd8d565e	-0.06901239
218	0x3e85f693	0.26164684
219	0xbede6a5a	-0.43440515
220	0xbe2d0834	-0.1689766
221	0xbe870749	-0.26372746
222	0xbe09e0a4	-0.134646
223	0x3e0724d4	0.13197643
224	0x3e614f51	0.22002913
225	0x3d924ee1	0.07143951
226	0xbca7610a	-0.020432014
227	0x3e668df0	0.22515082
228	0x3cbdceee	0.02316996
229	0x3dca2dd6	0.09872024
230	0x3db6b14f	0.08920538
231	0x3d9a7bd0	0.075431466
232	0x3e05d72f	0.13070367
233	0xbbfaec4b	-0.007657563
234	0xbdaae3ea	-0.083442524
235	0xbdcfa32f	-0.10138547
236	0xbdef65c2	-0.11689331
237	0x3e6e79bf	0.2328863
238	0x3b6d8760	0.003624402
239	0xbd5c67a6	-0.053809784
240	0xbeb81695	-0.3595473
241	0x3cc9e746	0.024646413
242	0x3e2f7806	0.17135629
243	0xbcc6ead5	-0.024281899
244	0xbc5e8309	-0.013581046
245	0xbe318604	-0.17336279
246	0xbda916e9	-0.08256323
247	0x3e935edf	0.28783318
248	0xbd6b339b	-0.05742226
249	0xbb6692f3	-0.0035182803
250	0x39068871	0.00012830064
251	0x3c9c30e1	0.019066276
252	0x3e5eb954	0.21750385
253	0x3e06fe66	0.13182983
254	0xbda1c1d7	-0.078983
255	0xbed8db83	-0.42354974

context_transformer_0/ffn_layer_3/intermediate_dense/einsum/Einsum;context_transformer_0/ffn_layer_3/intermediate_dense/Relu;context_transformer_0/ffn_layer_3/intermediate_dense/add f4 [32]
0	0xbe59f13d	-0.21283431
1	0xbe36cf87	-0.17852603
2	0xbde1d5ee	-0.11027132
3	0xbd082c7a	-0.03324554
4	0xbe80dba9	-0.25167587
5	0xbe2c4b4b	-0.16825597
6	0xbcd3bad9	-0.025845932
7	0xbc245f1e	-0.010032443
8	0xbee2fc7c	-0.44333255
9	0xbe0c869a	-0.13723221
10	0xbe72579a	-0.2366623
11	0xbe08ad54	-0.1334737
12	0xbe330be5	-0.17485006
13	0xbdf39f30	-0.11895597
14	0xbdfccac7	-0.12343364
15	0xbddfefee	-0.10934435
16	0xbd3ce3fc	-0.04611586
17	0xbdbb54b6	-0.09147017
18	0xbe820cfd	-0.25400534
19	0xbeb24867	-0.34820864
20	0x3bdff488	0.0068345703
21	0xbce6385d	-0.028103048
22	0xbdee986d	-0.11650167
23	0xbe6199f8	-0.2203139
24	0xbe3675e9	-0.17818417
25	0xbdf7aea2	-0.120938554
26	0xbe65ca34	-0.22440416
27	0xbe9f29e5	-0.3108665
28	0xbe227abc	-0.15867132
29	0xbc3e9936	-0.011633208
30	0xbe872e9b	-0.26402745
31	0xbd85bbd5	-0.06529967
